ForKids/app/src/main/assets/converted_model.tflite (tflite, 236176 bytes, 43 tensors)

conv2d/Conv2D_bias f4 [8]
0.52989405 0.72584915 0.842026 -0.4489369 0.52161545 -0.20313498 0.25621298 -0.28965643
00000000: 23a7 073f 40d1 393f 048f 573f 0fdb e5be
00000010: 9788 053f 9e02 50be 592e 833e d94d 94be

conv2d/kernel f4 [1, 3, 3, 8]
1.1366357 -0.85817826 -0.56219214 -1.902031e-33 0.77062684 0.5029094 -0.960954 -0.12561813
-0.6460601 0.5011898 -1.2181524 3.4099434e-33 1.9764221 -0.32260713 -1.3489183 -0.013395496
-0.6086799 0.2792118 0.35089174 3.638203e-33 1.2705983 -0.16989043 0.73756474 -0.16332637
0.5697635 -1.2269045 4.289149 5.708474e-34 0.32122198 -0.11784343 -0.84287524 0.49319726
-1.9157321 2.3719223 -0.39042282 -3.7337413e-34 0.16239162 -1.6384706 -0.5782214 0.57193184
-1.2660174 1.8677247 -0.99323994 -3.0289226e-33 -0.35404912 -0.9303581 0.80461484 0.53798294
0.5056211 -1.1140951 -0.005379082 -1.1521397e-33 -0.55891895 0.7079576 -0.50116724 0.1691051
0.8350094 -1.6379454 -1.6005703 2.0626186e-33 -1.2122719 -0.053965818 1.2576123 0.20158318
1.5358866 -0.3672026 -0.13998775 -1.7330833e-33 -2.478861 0.3678746 1.4305005 0.03263444
00000000: 477d 913f 92b1 5bbf d3eb 0fbf ba03 1e89
00000010: cd47 453f acbe 003f 1501 76bf 0aa2 00be
00000020: 3264 25bf fa4d 003f 6bec 9bbf bda4 8d09
00000030: 66fb fc3f c32c a5be 5ba9 acbf c878 5bbc
00000040: 72d2 1bbf d9f4 8e3e 15a8 b33e 0320 9709
00000050: f7a2 a23f c2f7 2dbe 0bd1 3c3f 073f 27be
00000060: 05dc 113f 350b 9dbf b540 8940 53b2 3d08
00000070: 3577 a43e e557 f1bd acc6 57bf 5a84 fc3e
00000080: b636 f5bf 93cd 1740 80e5 c7be 5126 f887
00000090: fd49 263e 68b9 d1bf 5106 14bf 206a 123f
000000a0: dc0c a2bf 9a11 ef3f f944 7ebf 0fa2 7b89
000000b0: ed45 b5be f32b 6ebf 3dfb 4d3f 40b9 093f
000000c0: 6270 013f ab9a 8ebf 0343 b0bb 9a6e bf88
000000d0: 5015 0fbf b63c 353f 7f4c 00bf e329 2d3e
000000e0: 2dc3 553f 32a8 d1bf 7ddf ccbf 0c5b 2b09
000000f0: ba2b 9bbf 430b 5dbd 71f9 a03f d26b 4e3e
00000100: ef97 c43f fb01 bcbe f358 0fbe 9bfa 0f89
00000110: a9a5 1ec0 0f5a bc3e a41a b73f b1ab 053d

conv2d_1/Conv2D_bias f4 [8]
-0.43790984 0.9422092 1.1675984 -0.1836164 0.7337684 -0.48898673 1.4385449 -0.1563316
00000000: b835 e0be 9f34 713f dd73 953f f005 3cbe
00000010: 3fd8 3b3f 785c fabe 3d22 b83f 6415 20be

conv2d_1/kernel f4 [8, 3, 3, 8]
-0.010969479 -0.048961636 0.14113858 1.4920064e-33 0.08820596 0.06041394 -0.10027489 0.025090113
0.09310314 -0.14090064 0.15732145 1.3409927e-33 0.12323856 0.13723621 -0.07526219 0.012038893
0.08141354 -0.026925152 0.034041557 1.396224e-33 0.041244715 0.09660237 0.08983523 -0.011351491
0.1077993 -0.118412584 0.024244875 1.648175e-33 0.1594463 0.024654528 -0.082052946 -0.024266334
0.18394272 -0.07810875 0.08606726 1.33261405e-33 0.21254304 0.08581551 0.055676688 -0.027183197
0.035210837 0.039089236 0.047459554 1.3068552e-33 0.16875106 0.068953484 0.19059059 -0.024772327
0.020184819 -0.063159496 -0.089314885 1.3390872e-33 -0.11751796 -0.049044486 -0.22725727 -0.027017932
0.106450744 -0.11454514 -0.004583015 -2.1845117e-33 -0.035642687 -0.009159023 -0.07794371 -0.04375198
-0.026102047 -0.031510662 0.009478909 -1.3208723e-33 -0.010039902 0.04905302 0.06778846 -0.056288905
0.01800216 0.03329148 0.013138369 8.595831e-34 -0.0334445 0.04823585 0.025193244 -0.053480215
0.02480882 0.018428637 0.017635325 9.008206e-34 -0.06503364 0.040907197 -0.02122442 -0.048050057
0.045308877 0.01852493 0.08063685 8.620382e-34 -0.07015599 0.05888759 -0.0073571033 -0.053764597
0.06168661 -0.04046926 -0.011260544 8.468203e-34 -0.12845089 0.054958444 0.055095304 -0.027709115
0.042855274 -0.07363868 -0.031623147 9.00118e-34 -0.11260725 0.03432345 0.068089634 -0.037170324
0.017507894 -0.09146085 0.005300751 9.172144e-34 -0.11581195 0.036943574 0.053334907 -0.040380117
0.07232956 -0.010193854 -0.038314782 8.939951e-34 -0.07970857 0.0463693 0.1136907 0.030938767
0.045497958 -0.10206148 -0.038656626 9.849546e-34 -0.12267029 0.031151896 0.06174614 0.041410238
0.054315895 -0.10061995 0.012526356 1.0025857e-33 -0.14386755 0.018082863 0.049144804 0.034823097
0.038268335 0.026869403 -0.014878014 1.07830365e-33 -0.05685164 0.011056866 0.013497025 -0.029309088
-0.0788346 -0.08363623 -0.1022359 -5.5206996e-34 -0.062503316 -0.07668537 0.101514295 -0.015722152
-0.013339454 -0.049135156 -0.01317167 -7.0158793e-34 -0.10151273 -0.13057283 -0.015900988 0.004000115
0.0812179 -0.006422961 0.0094755925 1.0416033e-33 -0.05365263 -0.017560232 0.14726636 -0.019598233
-0.17298706 0.20048979 -0.22809106 -4.7764216e-34 0.0068202564 -0.058438305 0.15271962 -0.009817886
0.016539246 -0.027488124 0.16133837 -4.473104e-35 -0.107050784 -0.09417102 -0.03938296 0.05770483
0.0256536 0.0058004484 -0.13888551 9.770578e-34 -0.17204419 0.04658138 0.22034 -0.010787429
-0.16562645 0.23826446 -0.11588217 -2.1678373e-35 -0.008501792 0.048532363 0.08116003 0.022926817
0.09668105 -0.103121914 0.18052828 -3.7882526e-34 0.038175642 -0.000516096 0.16123766 0.088757634
-0.11600338 0.049670517 -0.04180281 6.0454e-34 0.14700639 0.058827315 -0.04796338 -0.06879483
-0.06806666 0.06786263 -0.042072363 5.377382e-34 0.10621066 0.08187236 -0.06362354 -0.06364568
0.021395797 0.00045957707 0.022828318 7.084186e-34 0.115470685 0.08530414 -0.07823287 -0.047942486
-0.11947794 0.025930867 -0.09112453 -2.3875043e-33 0.10294303 0.12832305 -0.1043459 -0.056080017
-0.055063695 0.069500566 -0.0715256 -1.5772157e-33 0.12646693 0.15624747 -0.12167803 -0.023516562
00000000: 54b9 33bc ff8b 48bd a286 103e efe6 f708
00000010: 54a5 b43d 9c74 773d ec5c cdbd c889 cd3c
00000020: dcac be3d 4248 10be e018 213e 85cf de08
00000030: 8064 fc3d a687 0c3e 1023 9abd c73e 453c
00000040: 24bc a63d 2392 dcbc 296f 0b3d cdfc e708
00000050: 38f0 283d 77d7 c53d 88fb b73d 9bfb 39bc
00000060: e1c5 dc3d 4c82 f2bd 309d c63c ceec 0809
00000070: e445 233e 4bf8 c93c 600b a8bd 31ca c6bc
00000080: 7b5b 3c3e 7bf7 9fbd 0844 b03d 226b dd08
00000090: e2a4 593e 0bc0 af3d 3d0d 643d 4caf debc
000000a0: 3d39 103d 091c 203d f364 423d 7923 d908
000000b0: 14cd 2c3e 7c37 8d3d 2e2a 433e 56ef cabc
000000c0: a25a a53c c459 81bd b9ea b6bd 787e de08
000000d0: 42ad f0bd dfe2 48bd 21b6 68be b654 ddbc
000000e0: d902 da3d a496 eabd 1e2d 96bb 6d7b 3589
000000f0: 11fe 11bd ba0f 16bc f4a0 9fbd 4735 33bd
00000100: f6d3 d5bc 5311 01bd 6d4d 1b3c b277 db88
00000110: 677e 24bc d2eb 483d add4 8a3d 328f 66bd
00000120: 4479 933c a65c 083d 5042 573c 9fd2 8e08
00000130: 1afd 08bd f492 453d 1062 ce3c 120e 5bbd
00000140: de3b cb3c a7f7 963c f577 903c acac 9508
00000150: 5b30 85bd 4e8e 273d d6de adbc 23d0 44bd
00000160: cd95 393d 98c1 973c ef24 a53d 0d3b 8f08
00000170: f2ad 8fbd 1d34 713d db13 f1bb 4438 5cbd
00000180: 19ab 7c3d 18c3 25bd 257e 38bc c1b3 8c08
00000190: a188 03be 1b1c 613d 9dab 613d 3afe e2bc
000001a0: 0389 2f3d e0cf 96bd 4687 01bd c98e 9508
000001b0: a19e e6bd bf96 0c3d 9472 8b3d e93f 18bd
000001c0: b76c 8f3c d34f bbbd ecb1 ad3b fc65 9808
000001d0: d12e edbd 2552 173d b475 5a3d 9f65 25bd
000001e0: 8521 943d 1f04 27bc f6ef 1cbd 598a 9408
000001f0: 3f3e a3bd bced 3d3d abd6 e83d 4c73 fd3c
00000200: 115c 3a3d 9c05 d1bd 6956 1ebd 56a7 a308
00000210: 903a fbbd 4332 ff3c 85e9 7c3d c89d 293d
00000220: 587a 5e3d d511 cebd 583b 4d3c 4895 a608
00000230: 0452 13be 8322 943c 104c 493d aaa2 0e3d
00000240: 42bf 1c3d 391d dc3c eac2 73bc f729 b308
00000250: 44dd 68bd db27 353c a022 5d3c 9d19 f0bc
00000260: 0974 a1bd 7949 abbd 0e61 d1bd eb74 3788
00000270: bd01 80bd 380d 9dbd bae6 cf3d becb 80bc
00000280: ba8d 5abc f241 49bd fdcd 57bc 8024 6988
00000290: e8e5 cfbd e2b4 05be ca42 82bc 6613 833b
000002a0: 9255 a63d b477 d2bb 843f 1b3c e810 ad08
000002b0: dcc2 5bbd 7ada 8fbc fecc 163e 798c a0bc
000002c0: 8523 31be 324d 4d3e b490 69be 4db9 1e88
000002d0: 757c df3b 015d 6fbd 8862 1c3e 33db 20bc
000002e0: 507d 873c c62e e1bc e335 253e bdd4 6d86
000002f0: 713d dbbd bcdc c0bd 0750 21bd e65b 6c3d
00000300: 8027 d23c b011 be3b 0138 0ebe 7157 a208
00000310: 5a2c 30be 1ecc 3e3d cfa0 613e c2bd 30bc
00000320: fb99 29be 99fb 733e a253 edbd 2586 e685
00000330: 1a4b 0bbc dfc9 463d 3b37 a63d 05d1 bb3c
00000340: b700 c63d 9531 d3bd 68dc 383e c7c5 fb87
00000350: 105e 1c3d 9e4a 07ba 7c1b 253e 90c6 b53d
00000360: 2e93 edbd 5073 4b3d 6c39 2bbd 93e4 4808
00000370: d888 163e e9f4 703d 4075 44bd 4ee4 8cbd
00000380: 8866 8bbd 90fb 8a3d 1254 2cbd b5b1 3208
00000390: f984 d93d b2ac a73d 0f4d 82bd ab58 82bd
000003a0: 3d46 af3c 64f3 f039 7402 bb3c 9769 6b08
000003b0: e57b ec3d f0b3 ae3d 8e38 a0bd 575f 44bd
000003c0: dab0 f4bd f86c d43c 7f9f babd 9a58 4689
000003d0: ccd3 d23d 1e67 033e 4eb3 d5bd 29b4 65bd
000003e0: 788a 61bd 5056 8e3d 047c 92bd ab07 0389
000003f0: 8c80 013e 56ff 1f3e 5532 f9bd cea5 c0bc

conv2d_2/Conv2D_bias f4 [16]
-1.4775014 0.10103685 -1.4931691 1.6136625 0.061631992 -1.4109113 0.39612368 -2.809729
-0.86883926 -0.6212418 -0.35805786 1.4784356 0.7908839 0.5276259 -1.406978 -0.7688436
00000000: c41e bdbf 68ec ce3d 2a20 bfbf 7e8c ce3f
00000010: d471 7c3d be98 b4bf b9d0 ca3e 9ad2 33c0
00000020: 406c 5ebf b409 1fbf 5c53 b7be 613d bd3f
00000030: 5e77 4a3f 7e12 073f db17 b4bf efd2 44bf

conv2d_2/kernel f4 [16, 1, 1, 8]
0.47589463 0.92282224 0.551339 0.036222626 0.22355029 -0.45887277 -0.26898992 0.4953063
-0.23858686 -0.36046606 0.056897067 -0.4521499 -0.05346187 0.31446072 0.31644586 -0.48393598
0.32976723 0.7780534 0.39143935 0.2067118 -0.053639077 -0.22658034 0.08576953 0.9210222
0.010835625 -0.61375606 0.39241454 -0.2990851 -0.1979267 -0.6076426 -0.5638277 -0.12473817
0.41270313 -0.04279762 -0.34423444 0.44204947 0.21396247 -0.26401326 -0.09085486 0.0062942957
0.9545046 0.22783911 -0.05446834 0.5863086 0.08540457 0.056573212 0.21208625 0.24256633
-0.37870735 -0.2573659 0.036037967 -0.25466275 0.058317643 0.11527067 -0.49555102 -0.15094914
0.44196755 -0.06800049 1.039639 0.1559449 0.34358913 0.8000861 0.17044514 0.5236526
-0.4774173 -0.1090888 0.3930697 -0.085167624 0.22930288 0.6623567 -0.33677274 0.27116925
0.37979683 0.4247743 0.8452406 -0.7297685 -0.13962942 -0.4829452 -0.10689107 0.3144344
-0.12589209 0.28945065 0.20339875 -0.28689152 -0.20110938 0.18767938 0.16293743 -0.2572888
-1.238683 0.16356915 -0.1657368 -0.48076886 -0.32330036 -0.7866715 0.45929575 0.0020278678
-0.3281788 -0.3908407 -0.38401562 0.56711936 -0.1692187 -0.42588526 -0.33451414 0.483291
-0.26629996 -0.010231079 0.21558936 -0.257819 -0.058853034 -0.43788487 -0.36115226 0.058826003
-0.018255275 0.20389841 0.7129132 -0.5336923 0.6373939 0.56004584 0.14624023 -0.2721503
0.19303066 0.38945156 -0.58513033 0.15076385 0.016247021 0.08597858 -0.20897603 1.1386752
00000000: 76a8 f33e 143e 6c3f 8d24 0d3f 2d5e 143d
00000010: 5eea 643e 5ff1 eabe 0cb9 89be ca98 fd3e
00000020: 1d50 74be 028f b8be e60c 693d 3180 e7be
00000030: d5fa 5abd ff00 a13e 3105 a23e 75c6 f7be
00000040: 40d7 a83e 822e 473f bd6a c83e 42ac 533e
00000050: a6b4 5bbd ad04 68be efa7 af3d 1cc8 6b3f
00000060: e887 313c 1e1f 1dbf 8fea c83e af21 99be
00000070: 4cad 4abe 778e 1bbf 0357 10bf ba76 ffbd
00000080: d34d d33e 8f4c 2fbd 7f3f b0be 4f54 e23e
00000090: fa18 5b3e bf2c 87be 1d12 babd 6140 ce3b
000000a0: 6a5a 743f a84e 693e 321a 5fbd 5218 163f
000000b0: 97e8 ae3d 50b9 673d 232d 593e 4f63 783e
000000c0: eee5 c1be 77c5 83be 8c9c 133d 2863 82be
000000d0: 7bde 6e3d 0713 ec3d ddb8 fdbe 6992 1abe
000000e0: 9249 e23e d743 8bbd e412 853f 05b0 1f3e
000000f0: eaea af3e 71d2 4c3f 2c89 2e3e 190e 063f
00000100: 0a70 f4be f369 dfbd 6f40 c93e 5d6c aebd
00000110: 60ce 6a3e 3590 293f 7a6d acbe b2d6 8a3e
00000120: bb74 c23e 047c d93e b061 583f 1cd2 3abf
00000130: 04fb 0ebe 9844 f7be b5e9 dabd 8cfd a03e
00000140: dbe9 00be e032 943e c347 503e 72e3 92be
00000150: 9eef 4dbe 062f 403e 12d9 263e 5cbb 83be
00000160: 2a8d 9ebf ac7e 273e e8b6 29be 5627 f6be
00000170: a087 a5be 4e63 49bf d028 eb3e fae5 043b
00000180: 0d07 a8be 461c c8be b29d c4be bc2e 113f
00000190: ab47 2dbe a20d dabe 7045 abbe eb71 f73e
000001a0: 7858 88be 41a0 27bc 75c3 5c3e da00 84be
000001b0: e10f 71bd 7232 e0be f3e8 b8be 89f3 703d
000001c0: 168c 95bc bfca 503e 7b81 363f 0fa0 08bf
000001d0: 3f2c 233f 2a5f 0f3f 00c0 153e 4957 8bbe
000001e0: d4a9 453e 3266 c73e 1acb 15bf d761 1a3e
000001f0: 7918 853c 8a15 b03d d0fd 55be 1cc0 913f

conv2d_3/Conv2D_bias f4 [32]
-0.48746637 -1.3292613 -0.07198505 0.88096297 -0.5029696 -0.66170895 -1.0755363 1.1452731
-0.3533677 0.0081315935 0.71064264 -0.5797595 -0.65648717 -0.32795033 0.37940156 0.23083284
0.14316133 -0.68600273 1.3880922 -0.17700309 -0.4060787 -0.3115669 -0.53519 -0.18848377
0.73336864 -0.44502595 0.9233008 -0.53195137 -0.31863773 -0.38091904 0.1748547 -0.3280831
00000000: 3195 f9be 3c25 aabf e66c 93bd ca86 613f
00000010: 9ec2 00bf c265 29bf 2cab 89bf 4f98 923f
00000020: 9cec b4be 603a 053c adec 353f 1e6b 14bf
00000030: 8b0f 28bf 1be9 a7be ec40 c23e 725f 6c3e
00000040: e298 123e e09d 2fbf 01ad b13f 4c40 35be
00000050: 8ce9 cfbe b285 9fbe 3602 09bf e401 41be
00000060: 0cbe 3b3f 71da e3be 715d 6c3f f72d 08bf
00000070: 7c24 a3be d207 c3be 1c0d 333e 82fa a7be

conv2d_3/kernel f4 [32, 1, 1, 16]
-0.06806515 0.043137457 0.054745365 0.074212365 0.106845245 -0.02035989 0.018576516 0.036246024
0.029375864 3.3470827e-05 0.083385795 -0.052403495 0.1317734 0.004389241 -0.030050807 -0.009871723
-0.010733015 0.28837124 0.16115153 0.06650927 0.04632848 0.026738612 -0.038549207 0.041620966
0.038906824 0.024385488 0.3392167 -0.032919057 0.24310648 -0.016118916 0.022536978 0.0732975
-0.076669775 0.10684856 0.12042763 0.015749175 -0.06123081 0.037325144 -0.036133464 0.05178314
-0.08046656 0.040190756 -0.03546728 -0.14100371 0.023895439 0.048633393 -0.120742634 0.099389054
-0.10092108 -0.060218006 -0.09114683 -0.0040225834 -0.13383923 -0.035832226 -0.1419701 -0.1620811
-0.013785616 0.029377664 0.026765216 -0.15199497 0.11460796 -0.18891308 0.022764606 0.11784356
-0.08000456 0.00047242668 0.035251096 -0.010181599 0.016067356 -0.10858025 -0.00565642 0.15841834
0.01734835 0.09373738 0.07504003 -0.13730524 0.0066075483 0.034653787 0.147874 -0.12565397
-0.0418303 0.023662545 -0.008368255 -0.0013998704 0.09888089 0.04108591 0.09589131 0.08864802
-0.09791296 -0.0034655868 -0.09711049 0.08607947 -0.02451084 -0.047287174 0.019432904 -0.14988203
0.10637837 0.13254003 0.038608827 0.046999753 0.14077272 -0.031643204 0.08792858 0.18129387
-0.011607012 -0.0030312936 0.053161826 0.02133119 0.0035280522 0.020743346 0.11460661 -0.03541486
-0.061590638 -0.048102487 -0.050490312 0.09557651 -0.042242184 -0.013157634 -0.01312456 -0.15065642
0.023592312 -0.027977949 -0.1024171 0.08189794 -0.06878116 0.037893135 -0.05019888 -0.10972793
0.15244162 0.061144248 -0.05024721 -0.044093087 -0.009960886 0.16680738 0.19463876 0.039017305
0.064767405 -0.036782272 0.045563173 0.14561178 -0.000126245 0.036372744 0.11683512 0.044533823
-0.1107765 0.0060702544 -0.084582336 0.22416395 -0.12089011 -0.053369716 0.2091578 -0.004579897
-0.110298224 -0.04570318 -0.078869134 -0.1942627 -0.09744106 0.11968108 0.06632411 -0.085199445
-0.07196029 0.09964833 0.03974984 -0.08873757 -0.12906028 -0.048273236 -0.022052277 -0.026432525
-0.0173025 0.15687262 -0.15306523 -0.21012636 0.010132473 0.0663821 -0.14308046 -0.0075316555
-0.08422813 0.022001414 -0.069796465 0.053980086 0.014079486 0.023136865 -0.086460456 -0.1229962
-0.07936764 0.0029669907 0.07092278 0.092359215 -0.0063014943 0.08909324 0.10360899 0.040976964
-0.13372079 0.082683474 -0.019461164 -0.1113385 0.2612482 0.1895217 0.085645616 0.071441285
0.08481882 0.06489021 -0.050553847 0.0815284 0.020635387 -0.03420428 0.013625855 -0.100515135
0.025952319 -0.038666323 0.14251353 0.015065351 0.028537322 0.12380094 0.031247994 0.01469882
0.13098568 -0.1566968 0.002062464 0.010017199 -0.051420625 0.061734 -0.07749955 0.032717433
0.109092645 -0.06142393 -0.12789592 -0.10515484 -0.042883158 -0.23651247 -0.30517912 -0.059013918
0.07183914 0.03689088 0.134882 0.09178224 0.01681297 -0.08343531 0.030532196 0.012969263
-0.09639791 -0.04889169 0.021371847 -0.04590311 0.05367785 0.034898784 -0.017890021 -0.06271019
0.026679024 -0.08512345 0.00826789 -0.011168963 0.012746124 -0.112634145 -0.007373515 0.14913735
00000000: be65 8bbd e7b0 303d ad3c 603d a7fc 973d
00000010: aed1 da3d c9c9 a6bc c72d 983c b676 143d
00000020: a7a5 f03c 0763 0c38 2cc6 aa3d 0ca5 56bd
00000030: 9bef 063e 9fd3 8f3b 1c2d f6bc 02bd 21bc
00000040: 87d9 2fbc 65a5 933e e804 253e 0336 883d
00000050: efc2 3d3d ef0a db3c c6e5 1dbd bf7a 2a3d
00000060: c35c 1f3d 13c4 c73c d0ad ad3e 22d6 06bd
00000070: e8f0 783e d10b 84bc 789f b83c 001d 963d
00000080: 0b05 9dbd 6bd3 da3d c3a2 f63d 6a04 813c
00000090: 28cd 7abd 40e2 183d af00 14bd 8f1a 543d
000000a0: a7cb a4bd 109f 243d 2346 11bd 4763 10be
000000b0: 5ec0 c33c cf33 473d ea47 f7bd 7d8c cb3d
000000c0: b6af cebd 28a7 76bd 30ab babd e0cf 83bb
000000d0: 270d 09be d0c4 12bd 9c60 11be 96f8 25be
000000e0: 10dd 61bc 6da9 f03c ba42 db3c 92a4 1bbe
000000f0: 94b7 ea3d 6e72 41be d77c ba3c f757 f13d
00000100: 6ed9 a3bd 09b0 f739 7463 103d b9d0 26bc
00000110: b09f 833c 525f debd 7d59 b9bb 6b38 223e
00000120: 201e 8e3c 62f9 bf3d 96ae 993d bf99 0cbe
00000130: 2284 d83b 21f1 0d3d 486c 173e 6fab 00be
00000140: 4056 2bbd f4d7 c13c 011b 09bc db7b b7ba
00000150: 1082 ca3d b349 283d aa62 c43d 188d b53d
00000160: 9786 c8bd e61e 63bb dde1 c6bd 6f4a b03d
00000170: f5ca c8bc 32b0 41bd c131 9f3c ad7a 19be
00000180: e7dc d93d 93b8 073e 4a24 1e3d d082 403d
00000190: b926 103e 4e9c 01bd e613 b43d 1aa5 393e
000001a0: 562b 3ebc aba8 46bb 37c0 593d bfbe ae3c
000001b0: e536 673b f3ed a93c dfb6 ea3d 2c0f 11bd
000001c0: 7746 7cbd 1d07 45bd eece 4ebd 9ebd c33d
000001d0: 2406 2dbd 1e93 57bc 6508 57bc ad45 1abe
000001e0: aa44 c13c 0332 e5bc 0ec0 d1bd 1bba a73d
000001f0: 23dd 8cbd d535 1b3d 579d 4dbd 09b9 e0bd
00000200: a819 1c3e 6472 7a3d 05d0 4dbd f49a 34bd
00000210: fc32 23bc 8ecf 2a3e 624f 473e 9cd0 1f3d
00000220: c6a4 843d 02a9 16bd 73a0 3a3d 411b 153e
00000230: a260 04b9 96fb 143d 4047 ef3d 1969 363d
00000240: cade e2bd fce8 c63b 8139 adbd 3c8b 653e
00000250: 3c95 f7bd 349a 5abd 762d 563e f612 96bb
00000260: 09e4 e1bd 4233 3bbd 2486 a1bd cdec 46be
00000270: 2e8f c7bd 5b1b f53d efd4 873d 0c7d aebd
00000280: eb5f 93bd 6c14 cc3d bad0 223d 0bbc b5bd
00000290: 6128 04be 28ba 45bd faa6 b4bc 0689 d8bc
000002a0: f9bd 8dbc 37a3 203e 22bd 1cbe 5d2b 57be
000002b0: ac02 263c 57f3 873d af83 12be 1bcc f6bb
000002c0: cc7f acbd 4f3c b43c 73f1 8ebd 391a 5d3d
000002d0: a5ad 663c 8689 bd3c 2e12 b1bd 6fe5 fbbd
000002e0: 808b a2bd d871 423b f63f 913d d426 bd3d
000002f0: c47c cebb 8476 b63d f330 d43d 76d7 273d
00000300: 1aee 08be f455 a93d 056d 9fbc 7105 e4bd
00000310: 53c2 853e fa11 423e f866 af3d cf4f 923d
00000320: 7db5 ad3d 29e5 843d 8d11 4fbd 5df8 a63d
00000330: 8b0b a93c c919 0cbd fa3e 5f3c e1da cdbd
00000340: f599 d43c 9460 1ebd 11ef 113e a9d4 763c
00000350: 1ac7 e93c 598b fd3d cbfb ff3c 52d3 703c
00000360: 1c21 063e 2075 20be 672a 073b 2e1f 243c
00000370: 6f9e 52bd cadc 7c3d 16b8 9ebd b702 063d
00000380: f76b df3d a997 7bbd 26f7 02be 6c5b d7bd
00000390: 40a6 2fbd 5330 72be 7040 9cbe 94b8 71bd
000003a0: 6620 933d e41a 173d 821e 0a3e 54f8 bb3d
000003b0: 5bbb 893c 22e0 aabd a81e fa3c 087d 543c
000003c0: 446c c5bd a742 48bd 0314 af3c e604 3cbd
000003d0: 4edd 5b3d 07f2 0e3d 188e 92bc 336e 80bd
000003e0: f88d da3c 3455 aebd 0b76 073c 07fe 36bc
000003f0: 1ed5 503c bbac e6bd 879d f1bb 76b7 183e

conv2d_4/Conv2D_bias f4 [64]
0.48353237 0.059419155 0.51260674 0.14804646 -0.16024321 0.41544485 0.41180253 -0.5595701
-0.05527416 -0.59513545 -1.1262589 0.22375715 -0.05382476 0.10526557 -0.17525339 -0.020536032
0.26712862 -0.18801501 -0.71566045 -0.628198 0.26408225 -0.034913696 -1.1007723 -0.46180063
-0.11157587 0.17637718 -0.9451374 -0.1395944 -0.5419166 -1.1825268 0.028652847 -0.17053041
1.3970097 0.5532671 -0.77688146 -0.9310474 -0.44344303 0.3626434 0.26077682 -0.15397923
-0.34276682 0.7888285 -0.048378095 -0.3438983 0.28429544 -0.0036427975 -1.1193061 0.9914609
-1.386999 0.9218884 -0.736668 -0.34247696 0.3935007 -0.86103475 -0.22402671 0.46194863
-0.18319044 0.21282148 -0.6274033 -0.58361727 -0.29726958 0.2153987 0.592782 0.2591163
00000000: 8e91 f73e 8061 733d 323a 033f 7e99 173e
00000010: cc16 24be 30b5 d43e c8d7 d23e fc3f 0fbf
00000020: 2867 62bd cc5a 18bf 4029 90bf 9820 653e
00000030: 5a77 5cbd 7a95 d73d a075 33be 2e3b a8bc
00000040: 15c5 883e 0287 40be 8635 37bf 96d1 20bf
00000050: ca35 873e aa01 0fbd 1be6 8cbf 2271 ecbe
00000060: e481 e4bd 389c 343e 86f4 71bf d6f1 0ebe
00000070: 0cbb 0abf 0a5d 97bf 60b9 ea3c 869f 2ebe
00000080: 37d1 b23f eaa2 0d3f b4e1 46bf 1f59 6ebf
00000090: f70a e3be 65ac b93e 8a84 853e bbac 1dbe
000000a0: 227f afbe aaf0 493f 1c28 46bd 7013 b0be
000000b0: 2c8f 913e 00bc 6ebb 6c45 8fbf 62d0 7d3f
000000c0: 2f89 b1bf e100 6c3f 4696 3cbf 2459 afbe
000000d0: ec78 c93e c66c 5cbf 4267 65be 8884 ec3e
000000e0: 4696 3bbe e0ed 593e 819d 20bf f167 15bf
000000f0: b833 98be 7a91 5c3e 90c0 173f e4aa 843e

conv2d_4/kernel f4 [64, 1, 1, 32]
0.05725192 0.029883262 0.17769928 -0.038616918 0.073372394 -0.046845503 -0.018514536 -0.015720626
0.01436803 -0.13509305 -0.08596974 0.021265656 0.042865112 -0.021625191 0.10922486 0.037846673
-0.15205638 -0.07203125 0.099730596 -0.07194644 -0.004517917 -0.112268955 -0.009310253 0.026931638
-0.052592743 -0.12098032 -0.047870815 -0.1459212 -0.14767459 -0.016393732 0.006397909 -0.21179377
0.0331653 -0.11507109 -0.058643434 0.027912451 -0.028709449 0.025831087 -0.10858002 -0.0655991
-0.015722591 -0.1355393 -0.016695863 -0.21260901 0.06002155 0.03559742 0.03909031 -0.06805982
0.13184123 -0.014809431 -0.055956073 -0.07759453 -0.008953114 0.05954704 0.09140505 -0.068615705
-0.09747825 -0.08194507 0.11705422 -0.05105559 0.08146478 0.028624458 0.0029988852 -0.07866122
-0.0076307612 -0.017856143 -0.07738992 0.051575016 0.060250655 -0.04152823 -0.073053814 0.0068659927
-0.076342806 -0.08450507 0.009850408 -0.080108054 -0.063727655 0.07015261 -0.06460663 -0.08039317
-0.003020156 -0.03051221 0.03270882 -0.07839512 -0.07131423 -0.07628065 0.02075404 0.07045667
0.057206575 0.046716962 -0.03774573 -0.011480544 -0.057053793 0.076218694 -0.123904064 -0.17417248
-0.049548205 -0.024628477 -0.0020484817 0.025067173 -0.06538658 -0.027173113 -0.06674219 -0.025084369
-0.00061604404 0.044314973 0.038566947 -0.044326074 -0.08349847 -0.063921526 -0.013968925 -0.05317169
0.004955311 0.035554968 -0.003170504 0.030497001 -0.039511397 -0.033996217 -0.06275525 -0.01833071
0.03657931 0.034849856 -0.014910227 -0.040240187 0.019417934 -0.10258834 0.023523984 -0.014752248
0.07913395 -0.18688507 0.015269071 -0.021272575 -0.0022497007 0.019951282 0.036275137 0.028873002
0.010261343 0.0020342171 -0.04178788 -0.01722996 -0.01927375 -0.055805545 -0.04401439 -0.031344578
0.048215777 0.018449038 0.077436015 0.0077683665 -0.06035483 -0.0257628 -0.05737272 0.05537643
-0.13544573 0.016939437 -0.014889073 0.018624466 0.040538937 -0.09385535 -0.024650006 -0.010005646
0.072015084 -0.04548711 -0.039923713 -0.08170934 0.05956335 0.0004009449 -0.013506484 -0.04890274
-0.049930926 0.022750894 0.02852179 -0.084084876 0.067262694 -0.07813502 0.028116617 -0.014696134
-0.07792169 -0.014788856 -0.039270375 -0.026783973 0.0033576966 0.013766029 -0.045341626 0.030387681
-0.05352415 -0.03989318 0.10599308 -0.030462107 -0.044408716 -0.10116654 -0.04190723 0.08180625
-0.036144886 0.0030511203 -0.15650538 -0.01150605 -0.07743672 -0.07245841 -0.022792565 -0.14680484
-0.077143095 0.022371635 -0.03315324 -0.06595058 0.07188034 -0.04925005 0.01631629 -0.00035476097
-0.059618447 -0.07354082 -0.011026386 0.04450244 0.09835058 0.004268017 -0.09387712 0.10626268
-0.093756706 -0.079249375 -0.07440935 0.019931745 0.051312868 0.09982501 -0.022141842 0.08208693
-0.043562014 0.064894214 0.12528469 -0.08382082 -0.096657805 0.049280453 -0.07316041 -0.025731271
0.0858416 -0.039808072 -0.018024396 -0.0023969123 0.020172503 0.012520193 0.021846326 -0.063409045
0.056334514 0.0040109637 0.14359929 0.06201701 -0.10888902 0.031028548 0.066037826 0.04848108
-0.030835435 0.15093899 0.009441295 0.005023 0.032843284 0.031695735 0.100059554 0.092321746
00000000: fd80 6a3d becd f43c cdf6 353e c62c 1ebd
00000010: 4444 963d 12e1 3fbd ccab 97bc 8bc8 80bc
00000020: e367 6b3c d555 0abe e710 b0bd 5035 ae3c
00000030: 5493 2f3d 5027 b1bc 49b1 df3d 1d05 1b3d
00000040: abb4 1bbe 1f85 93bd 8e3f cc3d a858 93bd
00000050: 090b 94bb 44ed e5bd 088a 18bc bd9f dc3c
00000060: 7d6b 57bd 88c4 f7bd 3014 44bd 5e6c 15be
00000070: 0238 17be 264c 86bc 8da5 d13b 77e0 58be
00000080: 56d8 073d 64aa ebbd 1934 70bd a7a8 e43c
00000090: 1430 ebbc b79b d33c 345f debd d258 86bd
000000a0: aacc 80bc d0ca 0abe c3c5 88bc 2db6 59be
000000b0: 28d9 753d 9ace 113d 291d 203d f262 8bbd
000000c0: 6301 073e 41a3 72bc 3232 65bd e2e9 9ebd
000000d0: 15b0 12bc 99e7 733d 9232 bb3d 6486 8cbd
000000e0: ada2 c7bd d1d2 a7bd 1fba ef3d ab1f 51bd
000000f0: 02d7 a63d d77d ea3c f288 443b 2219 a1bd
00000100: 770b fabb 0c47 92bc 9b7e 9ebd 5340 533d
00000110: 64c9 763d 8119 2abd 3d9d 95bd 1ffc e03b
00000120: 9e59 9cbd fe10 adbd 9b63 213c b10f a4bd
00000130: a583 82bd 2cac 8f3d 7b50 84bd 2da5 a4bd
00000140: cfed 45bb bef4 f9bc aff9 053d 9f8d a0bd
00000150: 320d 92bd 0839 9cbd 6004 aa3c 964b 903d
00000160: 7151 6a3d 495a 3f3d 449b 1abd e418 3cbc
00000170: 3db1 69bd 8c18 9c3d 6ac1 fdbd 455a 32be
00000180: 0ff3 4abd a9c1 c9bc d23f 06bb ac59 cd3c
00000190: 66e9 85bd 269a debc 21b0 88bd bc7d cdbc
000001a0: 047e 21ba 9e83 353d 60f8 1d3d 428f 35bd
000001b0: 3f01 abbd 4ae9 82bd ebdd 64bc 8fca 59bd
000001c0: 2960 a23b 16a2 113d 3bc8 4fbb d9d4 f93c
000001d0: b4d6 21bd 9e3f 0bbd d385 80bd 492a 96bc
000001e0: 30d4 153d b9be 0e3d 064a 74bc e5d2 24bd
000001f0: 5c12 9f3c d619 d2bd 5fb5 c03c 6ab3 71bc
00000200: fb10 a23d cd5e 3fbe 202b 7a3c d343 aebc
00000210: b76f 13bb df70 a33c 3d95 143d 1387 ec3c
00000220: 311f 283c 8050 053b c529 2bbd d825 8dbc
00000230: fce3 9dbc 5b94 64bd 6f48 34bd 2c63 00bd
00000240: e87d 453d 7022 973c c696 9e3d c88d fe3b
00000250: a036 77bd 820c d3bc a8ff 6abd 65d2 623d
00000260: 49b2 0abe 93c4 8a3c 4cf1 73bc 5692 983c
00000270: 280c 263d 3c37 c0bd cfee c9bc b9ee 23bc
00000280: a57c 933d b150 3abd 0c87 23bd 3a57 a7bd
00000290: b3f8 733d ea35 d239 4d4a 5dbc 3d4e 48bd
000002a0: 5f84 4cbd 1560 ba3c 87a6 e93c b134 acbd
000002b0: 06c1 893d 4105 a0bd d254 e63c 0ec8 70bc
000002c0: 6895 9fbd f54c 72bc f9d9 20bd 106a dbbc
000002d0: cd0c 5c3b e98a 613c 24b8 39bd 96ef f83c
000002e0: 243c 5bbd 0867 23bd e612 d93d ab8b f9bc
000002f0: eae5 35bd 6730 cfbd eaa6 2bbd 098a a73d
00000300: a90c 14bd 4ef5 473b f242 20be df83 3cbc
00000310: 2597 9ebd 1365 94bd 79b7 babc 0254 16be
00000320: 33fd 9dbd b844 b73c b1cb 07bd 1911 87bd
00000330: 0036 933d 6cba 49bd bda9 853c 36ff b9b9
00000340: 7932 74bd 929c 96bd 04a8 34bc 3148 363d
00000350: 076c c93d b9da 8b3b a642 c0bd 3fa0 d93d
00000360: 8403 c0bd 7f4d a2bd ee63 98bd e647 a33c
00000370: 712d 523d 0e71 cc3d cf62 b5bc 311d a83d
00000380: 156e 32bd 42e7 843d a14a 003e 40aa abbd
00000390: 87f4 c5bd 4dda 493d 20d5 95bd 63ca d2bc
000003a0: b9cd af3d ca0d 23bd e6a7 93bc 8415 1dbb
000003b0: ce40 a53c 7f21 4d3c 11f7 b23c 9adc 81bd
000003c0: 05bf 663d 676e 833b b10b 133e 8c05 7e3d
000003d0: 3501 dfbd 952f fe3c d73e 873d 1994 463d
000003e0: 989a fcbc c08f 1a3e a9af 1a3c fa97 a43b
000003f0: ae86 063d 63d3 013d 06ec cc3d 2f13 bd3d

conv2d_5/Conv2D_bias f4 [128]
-0.17024013 -0.09925939 -0.20770627 -0.3111807 -0.3743596 0.04435748 -0.23028211 -0.38505518
-0.45606816 -0.25418338 -0.11933316 -0.7376411 -0.398714 -0.059499532 -0.52886224 -0.15083547
-0.3835051 -0.62971354 -0.14104965 -0.39071757 -0.4649782 -0.45623705 0.0053058565 0.0025010407
-0.48206162 -0.27787095 -0.17828374 -0.046485275 -0.05729431 -0.41389564 -0.5756882 -0.54449457
-0.073091894 -0.5671032 -0.5239384 -0.0591951 -0.47716182 -0.27099696 -0.23116472 -0.4883517
-0.3696888 -0.4474116 -0.22868118 -0.1618264 -0.47929212 -0.06665161 -0.27686882 0.04510352
-0.2588102 -0.4291665 -0.47328037 -0.55443835 -0.23972312 -0.2470083 -0.42469966 -0.15489095
-0.067625016 -0.40711585 -0.21524613 -0.6163599 -0.16331118 -0.14516494 0.012438178 -0.2830055
-0.1988929 -0.61104757 -0.14115407 -0.14133629 -0.4164867 -0.49353373 -0.23227705 -0.19767195
-0.53787595 -0.19402966 -0.48586708 -0.4601161 -0.009805173 -0.5202131 -0.18270016 -0.4260925
-0.26948225 -0.4711985 -0.27281108 -0.19107385 -0.43081176 -0.021431759 -0.15151475 -0.33345315
-0.21734121 -0.33784726 -0.2663955 -0.30928305 -0.31116652 -0.26645458 -0.17051865 -0.4488011
-0.59059894 -0.21484962 -0.49671522 -0.63885176 -0.0006196797 -0.16349748 -0.22104609 -0.07579917
-0.5764302 -0.3090032 -0.35740554 -0.6360061 0.085535854 -0.16136715 -0.17340083 -0.4105203
-0.58798814 -0.48746872 -0.266179 -0.117160365 -0.10436162 -0.5929403 0.029428512 -0.22733521
-0.3383412 -0.04281418 -0.053329498 -0.11471851 -0.13104962 0.024309725 -0.4692218 0.028482437
00000000: 6e53 2ebe 8248 cbbd f4b0 54be 1453 9fbe
00000010: 10ac bfbe 30b0 353d 13cf 6bbe f425 c5be
00000020: c481 e9be 5324 82be f264 f4bd 0cd6 3cbf
00000030: 3e24 ccbe c8b5 73bd 8463 07bf 9d74 1abe
00000040: c85a c4be e834 21bf 526f 10be 220c c8be
00000050: 9f11 eebe e797 e9be c0dc ad3b 80e8 233b
00000060: c8d0 f6be 1a45 8ebe 0390 36be 5867 3ebd
00000070: 70ad 6abd 21ea d3be 4d60 13bf ff63 0bbf
00000080: 34b1 95bd ad2d 11bf d420 06bf 9076 72bd
00000090: 8e4e f4be 1dc0 8abe 72b6 6cbe 3c09 fabe
000000a0: da47 bdbe 2213 e5be 662b 6abe d2b5 25be
000000b0: c765 f5be a480 88bd c0c1 8dbe 78be 383d
000000c0: c582 84be b6bb dbbe ce51 f2be acef 0dbf
000000d0: fa79 75be beef 7cbe 3c72 d9be bc9b 1ebe
000000e0: fc7e 8abd 7d71 d0be 7b69 5cbe c3c9 1dbf
000000f0: 0c3b 27be 1ea6 14be 80c9 4b3c 19e6 90be
00000100: 95aa 4bbe 9d6d 1cbf b18a 10be 76ba 10be
00000110: bf3d d5be 74b0 fcbe 09da 6dbe 846a 4abe
00000120: 3db2 09bf b6af 46be 92c3 f8be 5694 ebbe
00000130: e0a5 20bc b02c 05bf c015 3bbe cc28 dabe
00000140: 94f9 89be ee40 f1be e5ad 8bbe dda8 43be
00000150: 5c93 dcbe a891 afbc af26 1bbe 5fba aabe
00000160: b28e 5ebe 51fa acbe fe64 88be 595a 9ebe
00000170: 3851 9fbe bc6c 88be 719c 2ebe 42c9 e5be
00000180: 7e31 17bf 8a01 5cbe 7551 febe ca8b 23bf
00000190: 0072 22ba e26b 27be e859 62be 983c 9bbd
000001a0: ee90 13bf ab35 9ebe dcfd b6be 4cd1 22bf
000001b0: 6c2d af3d 6e3d 25be fd8f 31be b72f d2be
000001c0: 6486 16bf 8095 f9be 9d48 88be c6f1 efbd
000001d0: 8cbb d5bd efca 17bf 1014 f13c 90ca 68be
000001e0: 0f3b adbe ec5d 2fbd 0870 5abd 8af1 eabd
000001f0: df31 06be 3025 c73c d73d f0be 0054 e93c

conv2d_5/kernel f4 [128, 1, 1, 64]
-0.0004905407 0.0058235493 -0.0080510685 -0.003470529 -0.0068292352 -0.01490372 -0.021801086 -0.021931836
-0.0053419448 -0.024749054 -0.010807312 0.0023278878 -0.020399746 0.0043469775 -0.0005757579 0.007940714
-0.023211386 0.011480487 0.017264323 -0.001709605 0.002466978 -0.010474265 -0.00443377 0.01593948
0.015459112 0.003581971 -0.007816792 -0.01159089 -0.008434308 -0.04051061 -0.005203335 -0.0003588132
-0.0015548117 -0.027594691 -0.006438089 -0.005405556 -0.016611857 -0.007576341 -0.0135637615 0.01917178
0.0061227414 -0.001267823 -0.007936422 0.0061084107 0.0066131293 0.0035666246 0.008650972 0.023785861
-0.015797466 -0.005586535 -0.018568883 -0.012424916 -0.0061923433 -0.015263995 0.0062062866 -0.00028181894
-0.005513869 0.0109135695 -0.0133221615 -0.001705293 -0.023780517 0.0027231334 0.004743136 -5.5142733e-05
-0.008991886 -0.004862325 -0.00708428 0.0038553844 0.004456771 0.006603897 -0.021206515 -0.01040178
0.012271267 -0.017660184 0.0073071755 0.00415679 -0.0071158996 -0.004489346 -0.0012246312 -0.012253059
-0.01936946 -0.010011234 -0.014246208 -0.005074914 0.009368206 -0.002171387 -0.008916842 -0.015198823
0.010443253 0.011672471 0.0018671092 -0.008097648 0.007388429 0.01366884 -0.01670169 0.005420867
-0.01993086 -0.0180926 0.009068185 0.0037340266 0.004605263 -0.005134804 -0.008789316 0.003479736
0.0048964773 0.010617298 0.012352397 -0.020871967 0.005804256 -0.0011777492 -0.007745406 0.009731101
0.005457009 -0.006444865 -0.026025115 -0.029600002 -0.009646716 -0.0042244294 0.00060611713 0.0010580868
-0.003898484 0.022651413 -0.013328099 0.016510343 -0.003970799 -0.021156235 0.0008252645 0.0045165196
-0.010758889 -0.0037290838 -0.0024739115 -0.004551111 0.0015271842 -0.0025432205 -0.008144041 -0.0037980173
-0.00077934976 -0.0049316073 -0.0027451685 0.0069250204 -0.008916685 0.002192222 -0.0019123858 -0.0026099149
-0.00476145 -0.0018938519 -0.0046153907 -0.010358003 -0.006723685 -0.00910973 -0.006452885 0.004859301
-0.0005283573 0.0017506963 -0.0054760915 -0.0033914372 -0.0003007777 0.00036097967 0.012073699 0.00010235789
-0.000280202 -0.009580061 -0.0019814512 -0.008193986 0.0020316173 0.0018420204 -0.007453849 0.0011915823
-0.00015408873 0.004440844 0.004143894 -0.0053702565 -0.0016839047 0.0050506527 -0.00097239646 0.0034518323
-0.002235514 0.00080912455 -0.005435489 -0.0059293327 -0.0019029821 -0.006127697 0.00047826703 -0.0037133384
0.001974515 0.0037672124 -0.005295626 0.004227059 0.0007756805 -0.0031715608 0.0037766327 -0.003055162
0.0043862252 -0.0018835065 -0.0141045805 0.0050751474 -0.004847382 0.00788166 0.0008217932 0.037375078
-0.0109412065 0.016023846 0.012054325 0.013491445 0.0009492283 -0.013140722 -0.0025759102 -0.010069178
0.0058886437 0.00982322 -0.010709096 -0.024104217 0.013777622 -0.010913887 -0.0051686703 -0.02747741
-0.004372674 -0.0023710341 -0.011954734 -0.005800278 -0.012011454 0.028548094 0.019052465 0.00024510847
0.0006158134 0.0007836039 -0.0037024808 -0.0063670874 0.012367268 -0.0018613739 -0.020659303 0.006068264
0.0025575992 0.0059811566 0.011071408 4.9585487e-05 0.0022176907 -0.018410794 0.023482384 -0.00665833
0.020143358 -0.008652472 -0.0019439231 -0.0010430714 -0.0025553426 -0.0066125733 0.016886234 -0.02240347
0.00267917 -0.010169953 0.008784201 0.0064758756 0.005447055 -0.0018749086 0.013300954 -0.013147255
00000000: a197 00ba 79d3 be3b a1e8 03bc d171 63bb
00000010: c7c7 dfbb bb2e 74bc 3198 b2bc 65aa b3bc
00000020: 7b0b afbb 87be cabc 2711 31bc 7a8f 183b
00000030: 5e1d a7bc 1771 8e3b 75ee 16ba c519 023c
00000040: ce25 bebc a718 3c3c e96d 8d3c d314 e0ba
00000050: 06ad 213b 409c 2bbc 2949 91bb 8393 823c
00000060: 3748 7d3c 80bf 6a3b 0012 00bc b7e7 3dbc
00000070: 0d30 0abc 74ee 25bd bd80 aabb 181f bcb9
00000080: d3ca cbba 430e e2bc 9bf6 d2bb 1721 b1bb
00000090: 9715 88bc f442 f8bb 8a3a 5ebc 230e 9d3c
000000a0: 47a1 c83b 152d a6ba c407 02bc 1029 c83b
000000b0: f3b2 d83b 08be 693b cebc 0d3c 91da c23c
000000c0: b069 81bc 410f b7bb c51d 98bc e091 4bbc
000000d0: 24e9 cabb d615 7abc 1b5e cb3b 19c1 93b9
000000e0: b0ad b4bb d4ce 323c 3245 5abc 2384 dfba
000000f0: 5ccf c2bc 9976 323b 4f6c 9b3b 0f49 67b8
00000100: b452 13bc 2354 9fbb 3f23 e8bb 9eaa 7c3b
00000110: 1b0a 923b 8165 d83b 49b9 adbc 3a6c 2abc
00000120: 6d0d 493c 17ac 90bc 0871 ef3b af35 883b
00000130: 7e2c e9bb 5d1b 93bb ce83 a0ba 0ec1 48bc
00000140: b4ac 9ebc 2906 24bc ed68 69bc 774b a6bb
00000150: 1b7d 193c d44d 0ebb f217 12bc 7c04 79bc
00000160: 2e1a 2b3c e43d 3f3c cab9 f43a ffab 04bc
00000170: a21a f23b 45f3 5f3c fcd1 88bc 87a1 b13b
00000180: 0b46 a3bc ef36 94bc ba92 143c 92b6 743b
00000190: bfe7 963b dc41 a8bb 1001 10bc 480c 643b
000001a0: a172 a03b 2df4 2d3c b561 4a3c b0fb aabc
000001b0: a131 be3b b55e 9aba 2dcd fdbb 326f 1f3c
000001c0: b6d0 b23b 722f d3bb 9f32 d5bc b47b f2bc
000001d0: 420d 1ebc 156d 8abb d5e3 1e3a 80af 8a3a
000001e0: b57d 7fbb 758f b93c 195e 5abc b340 873c
000001f0: 7a1d 82bb d74f adbc 9056 583a 50ff 933b
00000200: 0d46 30bc a563 74bb 5921 22bb 7c21 95bb
00000210: cc2b c83a 29ac 26bb 956e 05bc 28e8 78bb
00000220: 474d 4cba 5299 a1bb 49e8 33bb 48eb e23b
00000230: 4a17 12bc 62ab 0f3b 05a9 faba 1b0b 2bbb
00000240: f005 9cbb 203b f8ba b43c 97bb 9db4 29bc
00000250: 5c52 dcbb fa40 15bc b972 d3bb c53a 9f3b
00000260: 7581 0aba 9f77 e53a c970 b3bb e042 5ebb
00000270: b3b1 9db9 df41 bd39 c4d0 453c f9a8 d638
00000280: 13e8 92b9 b0f5 1cbc 3cdb 01bb 1140 06bc
00000290: e224 053b f36f f13a 6b3f f4bb de2e 9c3a
000002a0: e192 21b9 8084 913b 81c9 873b faf8 afbb
000002b0: 77b6 dcba f27f a53b 6ce8 7eba 2338 623b
000002c0: b481 12bb 6e1b 543a 301c b2bb d94a c2bb
000002d0: 7c6d f9ba d9ca c8bb eabf fa39 7b5b 73bb
000002e0: dd66 013b 56e3 763b ee86 adbb 2483 8a3b
000002f0: 0a57 4b3a f6d9 4fbb 6281 773b 1d39 48bb
00000300: 53ba 8f3b fedf f6ba e616 67bc 6c4d a63b
00000310: cad6 9ebb 1422 013c 9c6d 573a 9c16 193d
00000320: bf42 33bc 7144 833c 817f 453c 390b 5d3c
00000330: a2d5 783a 2f4c 57bc 9ad0 28bb 32f9 24bc
00000340: 86f5 c03b 92f1 203c 3475 2fbc 3576 c5bc
00000350: 89bb 613c 29d0 32bc f35d a9bb 4e18 e1bc
00000360: a648 8fbb 5a63 1bbb cadd 43bc 4210 bebb
00000370: b1cb 44bc b1dd e93c ea13 9c3c e781 8039
00000380: 8a6e 213a c46a 4d3a 52a5 72bb 00a3 d0bb
00000390: 15a0 4a3c 58f9 f3ba b33d a9bc 4ad8 c63b
000003a0: 659d 273b 94fd c33b da64 353c 03fa 4f38
000003b0: ad56 113b 3cd2 96bc 215e c03c 1f2e dabb
000003c0: af03 a53c 19c3 0dbc 3ccb feba abb7 88ba
000003d0: 8977 27bb 49ae d8bb 0055 8a3c 7b87 b7bc
000003e0: 0495 2f3b e09f 26bc 9ceb 0f3c 9533 d43b
000003f0: 367d b23b 7ebf f5ba 3fec 593c 9667 57bc

conv2d_6/Conv2D_bias f4 [7]
0.028185451 -0.29397067 0.1001494 0.026138082 0.072429545 -0.1284513 -0.033373415
00000000: 2de5 e63c 5383 96be 211b cd3d 881f d63c
00000010: f155 943d bd88 03be 90b2 08bd

conv2d_6/kernel f4 [7, 3, 3, 128]
0.08013561 0.013255218 -0.12670289 -0.019332524 -0.17457643 -0.0012995466 0.1134455 0.07757506
-0.11213658 0.02208798 -0.04881116 0.39478427 0.2105215 0.042136535 -0.20774232 -0.14407596
-0.08376919 -0.025661321 -0.14015009 -0.040757433 -0.26295304 0.18352123 -0.009061654 0.012515294
0.26249927 0.17487186 -0.12657644 -0.102736406 -0.20855685 -0.13441631 0.1798213 0.074308775
-0.078409374 0.0898145 0.014954978 -0.22820483 -0.012546444 0.03031143 -0.045908116 0.06339164
-0.19783871 0.043335743 0.19983926 0.14030161 0.01839199 0.1713958 0.077153414 0.0702184
0.0383635 0.3242551 0.070494644 0.069367975 0.057413775 -0.046324763 0.07322986 0.061746266
-0.023593575 -0.11210353 0.02877301 0.045902982 -0.043803226 0.10325641 -5.2436106e-05 0.032420322
-0.26039496 0.12676321 -0.024637537 -0.23070803 -0.21313258 -0.17905317 -0.04282476 -0.056277506
-0.19483075 0.20096858 0.06178015 0.15532759 0.18380846 0.025996244 0.16734579 0.079609506
-0.13237849 -0.07012681 0.15959917 0.32807428 0.17088728 -0.06044809 0.17636402 0.24049795
-0.15006246 -0.101608284 -0.17667398 0.26131535 -0.1281816 -0.008969984 -0.2724307 -0.06252068
0.18191272 -0.06654149 -0.04173274 0.2516793 0.04230334 -0.2565861 -0.10315563 -0.035971574
-0.107294805 -0.13440323 -0.2186993 -0.27735892 -0.017205207 -0.02275233 0.03164135 -0.21762885
0.25066546 0.24468406 0.122669235 -0.10568584 0.17887048 -0.16440511 0.10088776 -0.044703603
0.1536794 0.13541049 -0.07966612 0.1745169 0.04753912 0.1989176 0.091783926 -0.10308874
0.13753738 0.03366691 0.021897387 0.017086076 -0.08788256 0.0472002 0.07660201 0.007136022
-0.29000065 -0.120395295 0.029379124 0.043579377 -0.06619307 -0.060896344 -0.08566508 -0.04476461
0.0946431 -0.13566805 0.08102099 -0.10848043 -0.06963598 0.08784346 -0.030176664 0.12700352
0.12876207 0.124506496 -0.07311389 -0.107206 0.0018919575 -0.09031167 0.2006616 -0.10741152
0.018921245 0.117491856 0.19692427 -0.06913221 -0.10978981 -0.04905748 0.032471035 -0.125428
-0.041226298 -0.058828842 0.12898417 0.1833919 0.013755428 0.10685605 0.1455517 0.012871944
0.044794418 0.29755974 -0.052410588 -0.053735957 0.073842816 -0.009779734 -0.13839751 0.059243895
-0.14408474 0.061663035 -0.08472529 -0.013731224 -0.06984688 -0.041161794 -0.11213635 0.09842458
-0.11395516 -0.07178519 -0.12502836 -0.05346177 -0.040995903 -0.1439691 0.07953893 -0.02195508
-0.13031758 -0.066908136 -0.110812865 -0.023014897 -0.052741572 -0.08818658 0.18826784 -0.037675075
0.00881747 0.09607149 0.067153715 0.048630044 0.041538663 -0.11781019 0.018372606 0.12065846
-0.05852947 -0.115625866 -0.25175095 0.13063979 -0.18069476 0.015753303 -0.08443376 -0.062104307
-0.06757604 0.14287783 -0.079086035 0.01911738 0.055284135 -0.23366793 0.0011471966 -0.12778834
-0.04958436 0.02123935 -0.09249843 -0.117284425 0.014255254 -0.09082175 0.06332677 -0.11144333
0.10182155 0.13265646 -0.1360949 -0.13267492 0.023661382 -0.04038504 0.030070264 0.030461028
-0.1677903 0.026509413 -0.088328734 0.056987908 0.058571663 0.09562258 -0.06683107 -0.12071138
00000000: 241e a43d 6a2c 593c 67be 01be 3e5f 9ebc
00000010: 2ac4 32be 8c55 aaba 1d56 e83d acdf 9e3d
00000020: dda7 e5bd daf1 b43c 36ee 47bd 2a21 ca3e
00000030: f392 573e 5c97 2c3d 67ba 54be a688 13be
00000040: 2e8f abbd b137 d2bc 8183 0fbe 44f1 26bd
00000050: c8a1 86be fdec 3b3e 5577 14bc f30c 4d3c
00000060: 4e66 863e 9c11 333e 419d 01be 7767 d2bd
00000070: ed8f 55be 6ea4 09be 1323 383e 332f 983d
00000080: 1895 a0bd aaf0 b73d b905 753c 87ae 69be
00000090: 9a8f 4dbc ad4f f83c 260a 3cbd 7ad3 813d
000000a0: 3b96 4abe d280 313d aaa2 4c3e 3aab 0f3e
000000b0: ccaa 963c 6182 2f3e 9c02 9e3d aace 8f3d
000000c0: 0c23 1d3d c404 a63e 7f5f 903d cc10 8e3d
000000d0: b52a 6b3d 09bf 3dbd 89f9 953d a7e9 7c3d
000000e0: 5047 c1bc 8996 e5bd 60b5 eb3c c404 3c3d
000000f0: 036b 33bd 1978 d33d d7ee 5bb8 2ccb 043d
00000100: 7d52 85be 37ce 013e a9d4 c9bc ba3e 6cbe
00000110: 6d3f 5abe b759 37be 0469 2fbd 3e83 66bd
00000120: b681 47be b5ca 4d3e 2f0d 7d3d 320e 1f3e
00000130: 4938 3c3e 13f6 d43c b25c 2b3e 4f0a a33d
00000140: 3a8e 07be a59e 8fbd f76d 233e 5af9 a73e
00000150: 13fd 2e3e 6b98 77bd c598 343e 1845 763e
00000160: f9a9 19be 0118 d0bd 06ea 34be 20cb 853e
00000170: 0a42 03be d7f6 12bc 097c 8bbe d80a 80bd
00000180: 5447 3a3e e846 88bd f3ef 2abd 1cdc 803e
00000190: 4446 2d3d 415f 83be 4243 d3bd ee56 13bd
000001a0: 61bd dbbd 00a1 09be b6f2 5fbe fd01 8ebe
000001b0: eff1 8cbc 1863 babc 5c9a 013d 19da 5ebe
000001c0: 3957 803e 758e 7a3e 023a fb3d d171 d8bd
000001d0: d329 373e d059 28be 3e9e ce3d 201b 37bd
000001e0: 225e 1d3e 0ca9 0a3e fe27 a3bd 8fb4 323e
000001f0: 61b8 423d 0eb1 4b3e 36f9 bb3d 3020 d3bd
00000200: 99d6 0c3e 50e6 093d 2662 b33c 19f8 8b3c
00000210: c6fb b3bd ff54 413d 84e1 9c3d 4bd5 e93b
00000220: f77a 94be cf91 f6bd 7dac f03c 4a80 323d
00000230: 3b90 87bd 726e 79bd 2c71 afbd 185b 37bd
00000240: 3ed4 c13d 91ec 0abe 55ee a53d fd2a debd
00000250: 4f9d 8ebd 46e7 b33d 0d35 f7bc 360d 023e
00000260: 34da 033e 43fd fe3d bcbc 95bd d28e dbbd
00000270: 8ffb f73a 53f5 b8bd 3c7a 4d3e 92fa dbbd
00000280: ba00 9b3c 929f f03d 84a6 493e 3095 8dbd
00000290: 7bd9 e0bd 7ff0 48bd 5900 053d 3370 00be
000002a0: e8dc 28bd 83f6 70bd 6d14 043e 16cb 3b3e
000002b0: 725e 613c 58d7 da3d 810b 153e d9e4 523c
000002c0: 5a7a 373d c059 983e 7cac 56bd 3c1a 5cbd
000002d0: e73a 973d 2d3b 20bc 14b8 0dbe baa9 723d
000002e0: f38a 13be 6192 7c3d 7484 adbd eef8 60bc
000002f0: e20b 8fbd 4599 28bd bea7 e5bd d492 c93d
00000300: 5361 e9bd 1d04 93bd 6f07 00be bbfa 5abd
00000310: 52eb 27bd a36c 13be 4ee5 a23d 24db b3bc
00000320: f971 05be 2207 89bd dbf1 e2bd bd89 bcbc
00000330: 8c07 58bd 2a9b b4bd 49c9 403e 2e51 1abd
00000340: 2677 103c 21c1 c43d e387 893d 4c30 473d
00000350: 7224 2a3d 7846 f1bd 2682 963c c81b f73d
00000360: 99bc 6fbd 41cd ecbd 80e5 80be 70c6 053e
00000370: 0c08 39be 120d 813c 9beb acbd 1661 7ebd
00000380: 4f65 8abd 914e 123e dcf7 a1bd 0d9c 9c3c
00000390: 9e71 623d a546 6fbe 885d 963a f2da 02be
000003a0: f818 4bbd 25fe ad3c d16f bdbd d132 f0bd
000003b0: de8e 693c c100 babd 77b1 813d 673c e4bd
000003c0: d187 d03d 18d7 073e 765c 0bbe efdb 07be
000003d0: 84d5 c13c c96a 25bd ea55 f63c 6889 f93c
000003e0: 38d1 2bbe 452a d93c b2e5 b4bd 276c 693d
000003f0: d7e8 6f3d c5d5 c33d bade 88bd 8737 f7bd

separable_conv2d/depthwise_kernel f4 [1, 3, 3, 8]
0.1704802 0.113211945 0.29590496 0.15632777 -0.3074113 -0.08560414 0.030178528 0.084649846
0.27649602 -0.16082895 -0.31324115 0.16482083 -0.57241696 -0.5287431 -0.36100525 0.0016394433
0.19222362 0.14114195 0.06395767 0.08388654 0.17192759 0.3685486 -0.3297556 0.21583977
-0.36785448 0.34813842 -0.06590601 0.11202365 0.1670567 0.067520194 0.36266774 0.025415536
-0.15312995 0.15187469 -0.6021041 -0.075661294 -0.12662822 -0.07250065 0.4184435 -0.20527187
0.25471473 0.1865049 0.38502994 -0.17460537 -0.083036095 0.10758872 0.06077997 0.11941681
-0.25737575 -0.23509619 0.043193847 0.060467735 0.3486889 0.003961761 0.12510264 -0.10932405
-0.039000474 -0.2104714 -0.024092035 0.12863763 0.20621836 0.33810195 -0.12345245 0.059956472
0.3329113 0.017370366 -0.01890708 -0.06058049 -0.05471745 -0.35305342 0.25173324 0.03739632
00000000: 5d92 2e3e aadb e73d db80 973e 6314 203e
00000010: 0465 9dbe 3951 afbd f638 f73c e65c ad3d
00000020: e390 8d3e 58b0 24be 2561 a0be cbc6 283e
00000030: eb89 12bf b55b 07bf aed5 b8be 97e2 d63a
00000040: 45d6 443e 8487 103e 3dfc 823d b5cc ab3d
00000050: c90d 303e 67b2 bc3e bad5 a8be 1a05 5d3e
00000060: 6c57 bcbe 333f b23e bbf9 86bd a86c e53d
00000070: e910 2b3e 0748 8a3d 96af b93e 3e34 d03c
00000080: 19ce 1cbe 0a85 1b3e 7f23 1abf 4ff4 9abd
00000090: d4aa 01be 397b 94bd 3a3e d63e ca32 52be
000000a0: f869 823e 24fb 3e3e a522 c53e c0cb 32be
000000b0: d40e aabd 7a57 dc3d 6bf4 783d cd90 f43d
000000c0: c1c6 83be 0ebd 70be 08ec 303d 04ad 773d
000000d0: 5a87 b23e a9d1 813b e81a 003e 4ae5 dfbd
000000e0: f6be 1fbd d185 57be a95c c5bc 95b9 033e
000000f0: e82a 533e b31b ad3e a3d4 fcbd eb94 753d
00000100: 5a73 aa3e 4c4c 8e3c 05e3 9abc 3f23 78bd
00000110: 681f 60bd 6bc3 b4be 2ee3 803e e22c 193d

separable_conv2d/pointwise_kernel f4 [16, 1, 1, 8]
0.1545021 -0.22495495 0.13257091 0.31834555 -1.09717 -0.19809778 0.9299762 0.31170967
0.30920225 -0.06944501 0.6894415 -0.3573931 0.9937465 1.18436 1.301383 0.6608304
-1.0596981 0.9284474 -0.53471726 1.4737167 1.5188158 -0.2819741 0.20136182 0.24217583
0.13977264 0.6632914 0.14097276 -0.11544383 1.4106172 -0.29882103 -0.6224742 0.31343636
-0.15107946 -0.43331507 0.21048841 -0.06794794 -0.9948683 0.79536885 0.9161491 -0.19940312
-0.012410577 -0.45043743 1.9678499 -0.52761847 -0.22679725 1.4082273 0.542063 0.08198624
0.30045417 0.04049191 2.1324458 0.5152593 -0.18869624 -0.45761573 0.11838563 -1.1055367
-1.2194134 -0.40948552 -0.30929002 -0.39335012 -0.3930048 1.5072 -0.49908075 -1.0826012
-0.13668518 -0.456624 -0.12576775 0.022149883 -1.0031776 1.3343893 0.4515753 -0.16736571
-0.13254358 1.0298742 -0.6979176 -0.31319448 -1.192315 1.0812678 0.17347047 -0.07568257
-0.3202336 -1.7189589 0.5511329 -0.19720191 0.55057734 0.2607085 -1.4354098 -0.074642114
-1.5870017 0.44718736 -0.40517944 0.48679388 -0.73422086 0.2962563 -0.83596665 -0.21981698
-0.039199024 0.30972487 0.5146924 -0.69178003 1.0273912 -0.29664767 -0.86122954 -0.1791768
-0.21013917 -0.0121721 1.1018044 0.0399043 1.4797417 -0.14622886 0.4394982 0.28022474
-0.6131921 -0.04502788 2.2772646 -0.05975529 -0.39956683 -0.67179257 0.08655877 0.5632417
-1.1598368 0.22845802 0.8179037 1.1004344 0.040089104 0.6684532 0.72553796 -0.9604212
00000000: cc35 1e3e 975a 66be abc0 073e 30fe a23e
00000010: 1170 8cbf 25da 4abe ec12 6e3f 6998 9f3e
00000020: c24f 9e3e 2f39 8ebd 3d7f 303f 3afc b6be
00000030: 2c66 7e3f 1c99 973f b893 a63f 2e2c 293f
00000040: 30a4 87bf bbae 6d3f 3be3 08bf c0a2 bc3f
00000050: 8e68 c23f e95e 90be cb31 4e3e f1fc 773e
00000060: 8f20 0f3e 77cd 293f 2a5b 103e d16d ecbd
00000070: 1b8f b43f 12ff 98be 785a 1fbf bb7a a03e
00000080: 93b4 1abe 79db ddbe 468a 573e 4a28 8bbd
00000090: b0af 7ebf 4b9d 4b3f bf88 6a3f 5530 4cbe
000000a0: bc55 4bbc bc9f e6be 81e2 fb3f 0112 07bf
000000b0: 8a3d 68be cb40 b43f a4c4 0a3f 67e8 a73d
000000c0: 21d5 993e d8da 253d fe79 0840 09e8 033f
000000d0: 9639 41be 9c4c eabe 2a74 f23d 3a82 8dbf
000000e0: bd15 9cbf 16a8 d1be 435b 9ebe 3065 c9be
000000f0: ed37 c9be eeeb c03f 8387 ffbe ad92 8abf
00000100: 33f7 0bbe 9fca e9be 43c9 00be ac73 b53c
00000110: 2068 80bf 45cd aa3f e134 e73e eb61 2bbe
00000120: 81b9 07be ebd2 833f baaa 32bf 075b a0be
00000130: c79d 98bf fc66 8a3f 3ea2 313e 77ff 9abd
00000140: a9f5 a3be d806 dcbf 0c17 0d3f 4cef 49be
00000150: a3f2 0c3f 967b 853e 82bb b7bf f7dd 98bd
00000160: df22 cbbf bef5 e43e ae73 cfbe 0c3d f93e
00000170: e6f5 3bbf e8ae 973e e901 56bf b417 61be
00000180: 288f 20bd 4294 9e3e e2c2 033f 7f18 31bf
00000190: 8e81 833f 34e2 97be 8a79 5cbf 207a 37be
000001a0: b92e 57be 7d6d 47bc ed07 8d3f b172 233d
000001b0: 2d68 bd3f 05bd 15be e805 e13e 9e79 8f3e
000001c0: 28fa 1cbf 286f 38bd b4be 1140 f7c1 74bd
000001d0: 0694 ccbe 99fa 2bbf b945 b13d 9c30 103f
000001e0: 8875 94bf e6f0 693e 2362 513f 09db 8c3f
000001f0: 7934 243d c01f 2b3f dbbc 393f 2ade 75bf

separable_conv2d/separable_conv2d/depthwise_bias f4 [8]
0.0 0.0 0.0 0.0 0.0 0.0 0.0 0.0
00000000: 0000 0000 0000 0000 0000 0000 0000 0000
00000010: 0000 0000 0000 0000 0000 0000 0000 0000

separable_conv2d/separable_conv2d_bias f4 [16]
-0.19066414 -0.099829435 -0.29548877 0.6582031 0.73456836 1.0976845 0.9976839 1.1286559
0.8832729 -0.048366606 1.3216969 0.14958595 1.6011622 0.4916256 0.16915432 0.51159185
00000000: 763d 43be 6073 ccbd 4e4a 97be 0080 283f
00000010: ac0c 3c3f ed80 8c3f 3668 7f3f cc77 903f
00000020: 2c1e 623f 101c 46bd 5d2d a93f 0f2d 193e
00000030: e2f2 cc3f 5ab6 fb3e ca36 2d3e aff7 023f
